0411_flip_add.onnx (onnx, 664847 bytes, 6 tensors)

classifier.f1.weight f4 [256, 560]
000000 4f 87 90 bc 1e e8 ba bc ae 55 8a bb 0b f4 94 bc
       -0.017642645 -0.02281576 -0.0042216396 -0.018182775
000010 2e 77 b3 bc ac af 17 bd 90 c0 f8 bc 55 12 86 bb
       -0.021907415 -0.037032768 -0.030365258 -0.004091541
000020 7b 5f 19 3c 34 69 13 bd 0a 25 01 bd f1 20 0d bd
       0.009361143 -0.035989 -0.031529464 -0.034455243
000030 80 51 f9 3c 53 ca f2 bc 71 70 07 3d d0 41 e1 3c
       0.03043437 -0.029637491 0.033066217 0.027497202
000040 ce b4 49 bd 23 63 6d 3c 6f b4 81 3c d6 55 43 bc
       -0.049244694 0.014488968 0.015833108 -0.01192232
000050 2a 9f 5a bc cd f3 23 bd 52 d1 f0 bc 03 01 0c 3c
       -0.013343612 -0.04002743 -0.029396687 0.008545163
000060 6e 82 bd 3c fc b7 7d bc a4 3a b6 bc 05 b2 f3 bc
       0.023133483 -0.01548576 -0.022244759 -0.029747972
000070 47 bc ef 3c f6 7d 26 bd 42 a3 06 3d bb fb 9e bb
       0.029264582 -0.04064747 0.03287054 -0.004851786
000080 4d d8 23 bd 4a 02 99 bc d4 22 82 3c b3 5e 29 bd
       -0.040001202 -0.01867785 0.015885748 -0.041350078
000090 04 16 27 3c 31 6b 19 bd c9 87 a2 bc f2 a7 97 bc
       0.01019812 -0.03745574 -0.019840138 -0.0185127
0000a0 42 03 ba bc 04 cd aa 3c 79 f2 c6 ba a7 be 2b 3c
       -0.022706632 0.020849712 -0.0015178464 0.010482467
0000b0 8f 8d 15 bd 9a e8 27 bd 2d db d2 bc f0 c1 c7 3c
       -0.036511954 -0.04099331 -0.025739277 0.024384469
0000c0 fc 8c 51 bc 5d 8f c5 3c 31 cf 96 bc cf 65 09 3c
       -0.012789961 0.024116213 -0.018409343 0.0083860895
0000d0 5d 75 a4 bb 6b d7 25 bd 55 86 1f bd 5a e4 c0 bc
       -0.0050188736 -0.04048864 -0.03894647 -0.023546387
0000e0 9a 88 60 3c d1 95 1f bc 7e 6a fd bc ba 6a c2 3c
       0.013704443 -0.009740309 -0.030934568 0.023732532
0000f0 f2 5c d5 bc 6c 55 33 bc 18 97 c0 bb 74 4d 15 bd
       -0.026045296 -0.010945659 -0.005877387 -0.03645082
000100 7c ec e0 bc fb 03 13 bd d0 e9 e2 3c 5c dc 12 3d
       -0.027456515 -0.035892468 0.027699381 0.035854682
000110 10 cc e2 3c 9b 34 dd 3c 64 74 01 3d c4 88 b1 3c
       0.027685195 0.027002623 0.03160514 0.02167166
000120 51 93 d5 3c 21 69 eb 3c 2c 82 b4 ba 5c 8e 63 ba
       0.026071222 0.028736653 -0.0013771704 -0.0008680576
000130 cf a9 76 bc f1 3c c8 3c 15 de 0e bc 7a 7d d5 bc
       -0.015055134 0.024443122 -0.008719941 -0.026060808
000140 8e ae e0 bc 65 6e 2f 3d 3d dd fc bc ba e2 14 bd
       -0.027426984 0.04282989 -0.030867213 -0.036349036
000150 2d 3e 79 3c a8 b7 15 3c 12 51 c8 bc c3 c6 23 3d
       0.015212578 0.009138025 -0.02445272 0.039984476
000160 4e 52 5c bc b8 0b 43 bd fe 74 28 bc e3 1b 25 3c
       -0.013447357 -0.047618598 -0.010281799 0.0100774495
000170 82 86 88 3c b6 6d 86 3c a6 bd f3 3c 98 8a 7c 3c
       0.0166657 0.016409736 0.029753517 0.015413903
000180 33 82 e7 3c cc b6 aa bc 36 23 12 3d 78 4a ac 3c
       0.028260326 -0.020839117 0.03567811 0.021031603
000190 08 38 07 3d f8 2a b4 3b 79 c0 1f bc 18 a4 d9 bc
       0.03301242 0.0054982863 -0.009750479 -0.026567504
0001a0 94 f1 27 3d ae eb 54 bc aa 62 c5 3c 45 f5 a6 3c
       0.04100187 -0.012995644 0.024094898 0.020380626
0001b0 b0 11 52 3b e9 17 8a 3b 01 b6 6e bc df aa f1 bc
       0.0032054 0.004214276 -0.01456976 -0.029500423
0001c0 e6 d0 9e bc 41 5e bc bb 20 22 92 bc 52 5a 11 3d
       -0.01938672 -0.0057485406 -0.017838538 0.035486527
0001d0 b3 eb df 3b 28 70 da 3b 90 9f bc bc b2 c3 ef 3c
       0.0068335175 0.006666202 -0.023025304 0.02926812
0001e0 8e 77 4b bc 03 ce bc 3c 8c da 49 3d 65 c6 18 3c
       -0.012418641 0.023047453 0.04928069 0.009324645
0001f0 f0 d9 3c 3d 75 57 f1 3b f9 3c 40 3c a1 5a 89 3d
       0.04610628 0.007365162 0.011733287 0.06706739
000200 58 93 3a 3d 3f ed f1 3c 56 2c 4c 3c e5 20 65 3c
       0.045550674 0.029532073 0.012461742 0.013984893
000210 68 87 03 bd e4 fc df 3c 9c ea a2 bc 3c 34 82 bc
       -0.032111555 0.027342267 -0.019887261 -0.015894048
000220 be 58 d7 bc 0f 4b 49 bb ab 31 d3 bc 57 2e 10 bd
       -0.026287433 -0.0030714904 -0.02578052 -0.035200443
000230 dd e7 db 3c 2a 5a 9e 3c 01 f3 d3 3c 35 a6 12 bd
       0.02684396 0.019330103 0.02587271 -0.03580304
000240 ae 18 df 3c 30 98 63 3c ae 0d 98 3c 5d 35 88 3c
       0.027233448 0.013891265 0.01856121 0.016627008
000250 5a 9d 11 bc a1 ce b6 bc a9 f4 23 bc 96 cb 70 3d
       -0.008887613 -0.022315325 -0.010007062 0.058787905
000260 cf 82 1f 3d 17 ad 9e 3b 56 da 83 3c f0 51 8f 3c
       0.03894311 0.0048424113 0.016095322 0.017495126
000270 bb 69 9a 3c 58 7b c2 b9 88 9c 19 3d ff 4b 45 bd
       0.018849244 -0.00037094462 0.037502795 -0.04816818
000280 63 86 50 bd 07 b4 5d bd 6c 4b 26 bd 93 7a 31 bd
       -0.05090941 -0.054126766 -0.04059927 -0.043329787
000290 2f 36 a1 3c c6 4d 9e 3b 5b 62 eb 3c e1 4e 25 3d
       0.019679157 0.0048310487 0.028733423 0.040358428
0002a0 be 71 2a bd 49 fe 05 bc f8 bd fd bc b0 3a 0d bd
       -0.04161238 -0.008178302 -0.030974373 -0.034479797
0002b0 44 38 c7 3c a0 cf e2 bb af 64 67 bc 93 d9 c8 3c
       0.024318822 -0.0069217235 -0.014123126 0.02451781
0002c0 f2 db 0e bc 41 10 e4 bb 34 c6 06 3b de 5b e8 3a
       -0.008719431 -0.0069599454 0.0020564916 0.0017727574
0002d0 7e d0 04 bc ea 90 b9 bc 51 6a e8 3c 36 b0 b0 3c
       -0.008106349 -0.022652108 0.028371008 0.021568399
0002e0 76 0a 15 3c 42 0f 18 3d 74 e7 4d 3d 8c 43 4a 3a
       0.009096732 0.037123926 0.05026956 0.0007715754
0002f0 95 ab 26 bd 79 15 29 bd fe 18 28 3b 91 06 a7 3b
       -0.040690977 -0.041280244 0.0025649662 0.0050972183
000300 36 98 1e 3d 37 13 49 3c f3 22 d4 3c ad 64 ce 3b
       0.03871938 0.012272648 0.025895571 0.0062986226
000310 cc 2b dd bc 93 38 71 bb f6 8d f2 3c 2c 93 2b bd
       -0.026998423 -0.0036807403 0.029608708 -0.0418884
000320 84 e3 07 bc cc 03 f0 3c 65 25 fb bc be 18 c6 3c
       -0.00829399 0.029298685 -0.03065748 0.02418172
000330 77 ea 44 3d 65 2b 4d 3d 28 56 0f 3d 44 90 8a bc
       0.048075166 0.050090212 0.034994274 -0.016914494
000340 eb 78 23 3d 6f 50 bb 3b 8a 97 1b 3d e8 42 56 3d
       0.03991024 0.0057163755 0.037986316 0.0523099
000350 81 10 e7 3a d0 85 7b b9 cf bc 07 3d 73 16 37 bd
       0.001762882 -0.00023987074 0.033139046 -0.044699144
000360 6f 91 52 3c d5 7c 1d bd a9 60 4f bd ea bb d1 3c
       0.012852057 -0.038449127 -0.05062929 0.0256023
000370 84 ee 2a 3c a8 0d f8 3a 21 2e 35 bd 6b 03 2e bc
       0.010432843 0.0018924968 -0.044233445 -0.010620932
000380 2d 92 aa 3b 3a 9a f5 bc 31 3f 49 bd ca 80 72 bc
       0.005205414 -0.029980768 -0.04913253 -0.0148012135
000390 eb cf ee bb 91 3b af bc 0d 00 09 bd 2a 59 49 3d
       -0.0072879693 -0.021390708 -0.033447314 0.0491573
0003a0 47 b0 98 bc 5c 79 48 bb bc 33 a8 3c 76 68 00 3d
       -0.018638743 -0.0030589914 0.020532481 0.03134962
0003b0 95 23 f0 3c e9 31 0b 3d 37 e8 a1 bb 83 41 79 3d
       0.029313842 0.033983145 -0.0049410122 0.060853492
0003c0 b0 25 33 3d 4d ee f1 3c aa bb 18 bc e8 2d e4 3a
       0.043737113 0.029532576 -0.009322086 0.0017408701
0003d0 36 29 a1 bc d9 cc de bc fa 04 b4 3c 77 f8 52 bd
       -0.019672971 -0.027197288 0.02197503 -0.051506486
0003e0 61 e8 48 bd f3 f8 c5 3c af b5 62 3b d1 3f d7 bc
       -0.04904974 0.02416656 0.0034593155 -0.026275547
0003f0 a6 5e 09 bd 79 58 c3 bb 6b 3a e2 3b de 3a 20 3d
       -0.03353753 -0.0059614745 0.0069039366 0.03911864

classifier.f1.bias f4 [256]
000000 99 0b 8d 3a 4e cb 27 3d 22 c9 2d 3d 08 6e a0 bc
       0.0010760903 0.04096537 0.042428143 -0.019583717
000010 56 16 db 3c 58 50 50 3b 14 2d 21 3d 19 10 2f 3d
       0.026744049 0.003178617 0.03934963 0.04273996
000020 03 16 9e 3c 47 bd 64 bc 05 1f 18 3c 91 ad da 3c
       0.019297605 -0.013961143 0.009284739 0.026694091
000030 cb d8 10 3d 07 4a f0 bc 59 ec ba 3c 11 f3 ef 3b
       0.035363 -0.029332174 0.022817777 0.007322677
000040 10 98 12 bc 58 5d f7 bb ed 77 56 3d ab e1 10 3d
       -0.008947387 -0.0075489692 0.052360464 0.035371464
000050 3f 55 5b 3d d6 dd 48 3d 07 43 0a bd 1d 10 47 3c
       0.053548094 0.049039684 -0.03375533 0.012149838
000060 90 12 1e bd dc ed fc 3c 69 7d 0e bd e3 0b 94 3d
       -0.03859192 0.030875139 -0.03478757 0.0722883
000070 6f 05 7a 3d ad 9b df bc cb 1f ae 3c 2b a4 0c 3d
       0.061040338 -0.027295912 0.021255394 0.03433625
000080 84 06 c3 bc d6 5b 3d 3d e6 e4 d1 3d 78 d4 4e bc
       -0.023806818 0.04623016 0.10248737 -0.012623899
000090 09 a4 ae 3c 4a 75 21 3d 99 83 3c 3d 0c 20 6b 3c
       0.021318452 0.039418496 0.04602394 0.014350902
0000a0 b5 e8 45 3d 20 8a 3e 3d 2a d2 76 bc 31 4d b4 bc
       0.04831763 0.046518445 -0.015064755 -0.022009464
0000b0 ca 53 08 3d 2f 76 f1 3d 8d e4 ab 3c cd 87 43 3d
       0.033283032 0.1179012 0.020983005 0.04773693
0000c0 46 81 62 3d 56 21 10 3d 11 d2 30 3d 5d cd 00 3d
       0.055299066 0.03518804 0.043169085 0.03144585
0000d0 19 8b 81 3c 4a e3 b2 3b e9 94 e2 3c e3 ac 81 3c
       0.015813397 0.005459224 0.027658897 0.01582951
0000e0 08 aa 1a 3c 73 6c 3f bd e6 1e 49 bc 03 ab d0 3d
       0.009439953 -0.046734285 -0.012275433 0.10188868
0000f0 79 d6 fa bc 3b cd 32 3d 90 d2 2f 3d 2a da bf 3c
       -0.030619847 0.043652754 0.042925417 0.023419458
000100 03 72 9d bc ff a2 21 bd 36 bd 82 bc 6a fe 53 3c
       -0.019219404 -0.039462086 -0.015959363 0.012939075
000110 ba 32 40 3d 48 64 b0 3d f8 63 03 bc a8 d5 90 bb
       0.046923377 0.08612877 -0.00801944 -0.004420001
000120 10 31 c1 3c d1 db 09 3d 82 67 44 3d 06 fb 1f bc
       0.023582965 0.0336569 0.047950275 -0.0097644385
000130 0a 27 2e 3d 90 a7 8b 3a 80 34 42 bc e5 11 20 bd
       0.0425177 0.0010654796 -0.011853337 -0.039079566
000140 6d ea f9 3b a8 cd a0 3c 75 ac 2b 3d 7c 71 09 bd
       0.0076268227 0.019629315 0.041912515 -0.033555493
000150 11 f3 3a 3b a8 f7 8f 3d 14 e2 49 3d 93 b8 2e 3b
       0.0028526227 0.070296586 0.04928787 0.0026660308
000160 84 5d e4 bc 90 65 ea bc 4b fa 99 3c 7d de 88 3b
       -0.027876623 -0.028612882 0.018796107 0.0041769133
000170 3c e0 1d bd 65 de 5b 3d b4 16 b1 3c d0 36 a9 bc
       -0.038543925 0.05367889 0.021617271 -0.02065602
000180 a7 9c 94 3d e0 4a 79 3c de c1 ab bc 02 4e 74 3d
       0.072564416 0.0152156055 -0.020966467 0.059644707
000190 d3 db 66 3c 1e 47 02 bd 3f 37 03 bc 3a 3c e7 3b
       0.014090496 -0.031806104 -0.008008777 0.00705674
0001a0 29 ef b9 bc 57 15 a6 bc e0 0a a3 bc 6e 3c d2 bc
       -0.022697048 -0.020273848 -0.019902647 -0.02566358
0001b0 28 1e 16 3d 64 bf 35 3d 90 22 9c bc 29 67 85 3d
       0.036649853 0.044371977 -0.01905945 0.06513817
0001c0 24 e4 e1 bc 36 1d 3d 3d 21 0e 52 3d ff 5b fd 3c
       -0.027574606 0.046170436 0.051283006 0.030927656
0001d0 c8 b3 01 3d f6 f3 fc bc 77 df ac 3a 11 d6 f5 b9
       0.031665593 -0.030878048 0.0013189156 -0.00046889533
0001e0 83 3f c1 39 b0 fd 36 3d 1f cb 41 bc 75 16 ae 3b
       0.00036859149 0.04467553 -0.011828213 0.0053127357
0001f0 d7 51 fd bb 54 c8 61 3d fd 80 a3 bc b9 7d 7b bc
       -0.0077307033 0.05512269 -0.019958967 -0.015349799
000200 68 ca ca bc 40 6a 2f bc cb 9b d6 3c bc 35 c3 bb
       -0.024754718 -0.010706484 0.026197335 -0.0059573334
000210 d8 e7 23 bc 31 45 a3 bc f7 43 2a bd 20 25 8b 3c
       -0.010004006 -0.019930454 -0.041568723 0.016985476
000220 0d ad 3f 3d 28 4e a2 3d db e1 58 3b 99 df 37 bc
       0.046795893 0.07925063 0.0033093605 -0.011222743
000230 48 dd 5d 3d f5 2a 5f 3d 66 e9 4d 3d b5 1f 01 bd
       0.05416611 0.054484326 0.050271414 -0.03152438
000240 36 98 0d 3d e6 f5 17 3c be 9a 65 3d b3 c1 9b 3c
       0.034568988 0.009274935 0.056055777 0.019013261
000250 8a 74 8a 3c 38 96 20 bd 7c d4 0b bd 09 8b 6a bb
       0.016901273 -0.03920576 -0.034138188 -0.0035788438
000260 0a ee 2c 3d 99 84 3c bd c1 1e 4d 3d 65 96 0e 3d
       0.0422192 -0.046024892 0.050078157 0.034811396
000270 ec f6 f7 3c e7 3b 46 3c 6c 6c 17 3d bb 68 a2 bc
       0.030269109 0.012099243 0.036968634 -0.01982533
000280 9f dc 66 3c c4 8b 57 3d 78 b5 85 3d 85 f1 5d bc
       0.014090686 0.052623525 0.06528753 -0.013546352
000290 17 7e 01 3d 06 f3 22 3d c4 fc 9f 3d 40 fe 92 3d
       0.03161439 0.039782546 0.07811883 0.071774006
0002a0 3c 63 2c 3c c1 80 19 b9 ca 55 8e 3b 8c 3d 7e bc
       0.010521706 -0.00014639182 0.004343723 -0.015517604
0002b0 af ed 72 3d 67 86 87 3d 62 c1 6f 3c c2 58 ca bb
       0.059308704 0.06617432 0.014633508 -0.0061751315
0002c0 34 4e c0 bb ec 7f 91 3a ee 9c 01 bc d9 fb 4a 3b
       -0.0058686975 0.0011100746 -0.00791095 0.0030972867
0002d0 e0 06 10 bd 80 c9 e5 3b f3 4f 9d 3c 94 b7 4d bd
       -0.035162807 0.007012546 0.019203162 -0.050223902
0002e0 9f dc 3e 3d 99 79 5e 3d d6 39 0b 3d 0d 81 fb bc
       0.04659712 0.054315183 0.033990704 -0.030701185
0002f0 ab f7 8d 3d 6f bf 97 bc fb 9b 85 3d 69 96 e6 3d
       0.069320045 -0.0185239 0.065238915 0.11259157
000300 94 21 14 bd 1e 88 d0 3c d7 a7 e5 bc bd e4 c7 3b
       -0.036164835 0.02545553 -0.028034134 0.006100266
000310 71 a7 58 3d 99 f2 b6 3b e3 d4 f9 3c 07 9d 59 3d
       0.05289406 0.005583119 0.03049702 0.05312827
000320 11 3e 2b 3d 4c a7 04 b9 cc 22 c6 3b b2 6a 30 3c
       0.041807238 -0.00012650824 0.0060466286 0.010767626
000330 10 50 76 3d 4c a2 c6 3b a2 89 89 3d 3d f7 15 bb
       0.060134947 0.0060618278 0.067157045 -0.0022882961
000340 5f a9 08 3d 1a fc 09 3d 4d 0f 1a bc d4 00 b8 bc
       0.03336465 0.03368769 -0.009403062 -0.022461332
000350 28 46 7b bc 3e bb 1a bd 94 2a 83 3d ee 47 80 3c
       -0.015336551 -0.037776224 0.064046055 0.015659299
000360 6d 28 7d bc f6 64 24 3d 9d 89 0c 3e d2 cf 34 bc
       -0.015451533 0.040135346 0.1372437 -0.011035876
000370 ff 85 6b 3c c0 8d 14 3d 15 ce 8f 3c f0 d7 c6 3c
       0.014375209 0.036267996 0.017554322 0.024272889
000380 77 5f 5d 3d 2c 9f 9b 3c 3f b3 71 bb a6 7e d6 3c
       0.05404612 0.018996798 -0.003688052 0.026183438
000390 18 5a 7a 3d 9e 58 0a bc 4b 68 a1 3c 39 87 11 3c
       0.061121076 -0.00844398 0.019703051 0.008882337
0003a0 0e 65 1e 3b b7 75 2d 3d 60 81 e6 3c 45 3a e2 3c
       0.002416912 0.04234859 0.028137863 0.027615676
0003b0 96 4b e0 bc ba 31 0c bd 1a 87 14 3d e7 17 89 3d
       -0.027379792 -0.03422711 0.036261655 0.06694012
0003c0 17 c1 d5 3c a8 c9 2b 3d 28 eb be bc c9 19 10 3d
       0.026093049 0.04194036 -0.02330549 0.03518084
0003d0 b3 8e 26 bd be 33 1d 3c fb 63 29 3d 63 58 28 3c
       -0.040663432 0.009594856 0.041355114 0.010274979
0003e0 27 1e 61 3c a6 d2 8a 3d ba dc d9 bc e7 f8 20 3d
       0.013740099 0.06778459 -0.026594508 0.03929987
0003f0 a0 a1 bb bc e1 3b 1c 3d c0 9e 9a bc 8d af 83 bb
       -0.022904217 0.038143042 -0.018874526 -0.00401873

classifier.f2.weight f4 [84, 256]
000000 b7 ba 80 3d 29 7c 21 bd d9 d4 e3 3c 5b 3f 8d bd
       0.06285613 -0.03942505 0.027811455 -0.0689685
000010 f3 fc 3d bd 82 0a d6 3c b8 bb 73 3c c8 cf 89 3d
       -0.04638381 0.026128057 0.014876299 0.06729084
000020 4e ea ef 3c 52 a4 03 bc a7 68 30 3d ce 14 d6 3c
       0.02928653 -0.0080347825 0.043068554 0.026132967
000030 f6 cb 7d 3d 4a 7c e6 3c 1d 15 97 3d 22 75 36 3d
       0.06196209 0.028135438 0.07377074 0.0445453
000040 b4 50 14 bd f7 3e 4c 3d 90 53 ea 3c 64 19 7b bd
       -0.036209777 0.049864735 0.028604299 -0.06130351
000050 37 44 31 3d 4f 72 af bc 58 26 89 bd 48 4c 36 bc
       0.043277945 -0.021416811 -0.066967666 -0.011126585
000060 8d a6 89 3d 26 a2 18 bd e3 a6 71 3b 21 eb 2e bb
       0.0672122 -0.03726401 0.0036873154 -0.002669044
000070 d9 9a 08 bd f4 ab 42 bb 97 a8 89 3d 90 11 52 3c
       -0.0333508 -0.0029704543 0.06721609 0.01282157
000080 33 df 56 bd 05 60 4e 3d 76 0a 37 bd b5 f7 18 3c
       -0.052458953 0.05038454 -0.04468771 0.009336402
000090 77 34 ff bc 10 0e 8e 3d e3 72 ab bd 96 dd 95 3d
       -0.031152947 0.06936276 -0.08371522 0.07317655
0000a0 7d 34 58 bd f9 12 13 3c 73 77 1c bc d3 5e 27 3c
       -0.05278443 0.008976691 -0.009549963 0.010215479
0000b0 c6 74 13 bd b9 a1 21 3d 16 fd 98 3c 8f 2f 13 3d
       -0.036000036 0.03946087 0.018675368 0.035934027
0000c0 ef 39 99 3d 87 90 29 bc 00 13 23 3d 43 9e 42 3d
       0.07481753 -0.010349399 0.03981304 0.04751421
0000d0 a4 a3 f3 3c 58 e7 91 bc 4b fd 6c bd 67 c4 c8 ba
       0.029741116 -0.017810509 -0.057858746 -0.0015317322
0000e0 98 48 7b 3d 85 2e 9c 3c c2 e5 f2 3c f8 65 0f bd
       0.061348528 0.019065151 0.029650573 -0.035009354
0000f0 19 ad e1 bc cc 3e 1e bd 5c 9b 5f 3c f4 f3 53 bd
       -0.02754836 -0.038634107 0.01364788 -0.051746324
000100 48 81 6f 3d 61 59 b0 3c ab 6e 61 bd bd ec 3b bd
       0.0584729 0.021526994 -0.05503718 -0.045880068
000110 d1 bf 42 bd 75 c0 b1 3b 89 8d dd bc 89 f3 4e 3d
       -0.04754621 0.005424554 -0.027045028 0.050525222
000120 e3 2c 95 3c 76 55 39 bd 50 b4 bd 3c ec 8a 1d bd
       0.01820988 -0.045247518 0.023157269 -0.038462564
000130 2a cc e4 bc b4 f5 09 3d a4 39 83 bd c0 64 67 3d
       -0.027929384 0.033681586 -0.064074785 0.056492567
000140 6c e2 03 bd 8b 60 40 bb 4d 07 57 bd 13 df c4 3c
       -0.032198355 -0.002935442 -0.052497197 0.024032151
000150 a4 db 5d 3b da b0 91 3d cc 1b 42 bc 7f d1 bd bc
       0.003385284 0.0711381 -0.011847448 -0.023171185
000160 2a 99 0d bd b3 30 4f bd 8d 36 97 3c c9 43 fa bc
       -0.034569897 -0.050583553 0.018458629 -0.0305499
000170 18 62 2e 3d 0a ba 6f 3b be 0f 97 3d bc 50 37 bd
       0.04257402 0.0036579394 0.073760495 -0.04475473
000180 8a 3b af ba ca 3c b5 3c 4d 6b 14 bd 8a 54 d7 3c
       -0.0013369184 0.022123713 -0.036235142 0.026285429
000190 49 c9 0d bd 57 c4 ee 3c 51 90 47 bd 94 87 57 3d
       -0.03461579 0.029146357 -0.048721615 0.05261953
0001a0 05 f4 c7 3c fb 79 1d 3c 2c a5 91 bc 6c 42 57 bd
       0.02440835 0.009611602 -0.017778955 -0.05255358
0001b0 40 a6 11 3d 4f c6 a6 3c c7 a5 75 bd 95 2a 4f bd
       0.03555894 0.020358233 -0.05997255 -0.05057772
0001c0 1b 1b 4a 3d 35 82 1a bd 8a 0e 13 bd d3 63 3c bc
       0.049342256 -0.03772183 -0.035902537 -0.011498409
0001d0 6f 5c f6 bc 51 8e 0d 3c 61 89 23 bd 78 8f 25 3c
       -0.030073373 0.008639888 -0.039925937 0.010105006
0001e0 2d 18 6d bb 27 cd 4f 3d d9 80 79 bd da 36 88 3c
       -0.003617774 0.050732758 -0.060913894 0.016627718
0001f0 fc 76 fa 3c 94 30 01 bd 48 21 91 ba 21 fb da bb
       0.030574314 -0.03154047 -0.0011072541 -0.006682769
000200 5a 3d 9e 3b 97 ee 6f bd df ec 68 3d cc 10 cf 3d
       0.004829091 -0.058577146 0.056866523 0.101106256
000210 5c 40 57 bd ee 9d 69 3d b9 1e 85 bd c9 f2 78 3c
       -0.052551612 0.05703538 -0.065000005 0.015194603
000220 65 51 4b 3d f6 6a ba bb 30 57 6f 3d 78 ee 29 3d
       0.04963817 -0.0056890203 0.058432758 0.041487187
000230 65 ac 81 bd 3a a0 9a 3c f3 bc 77 bd 30 bf 33 3d
       -0.0633171 0.01887523 -0.06048293 0.043883502
000240 d3 1f 2a bd 76 5f ae 3c d1 6a b9 bb 15 56 f8 b9
       -0.041534256 0.021285754 -0.0056584855 -0.00047366382
000250 95 6e b4 bd 54 8e 30 bd 80 9c 0c bd 27 d2 ed 3b
       -0.08810154 -0.043104485 -0.034328938 0.007257718
000260 7a bc f3 bc 07 4f df 3c 11 dd d8 bc 56 45 be bc
       -0.029752959 0.027259363 -0.0264726 -0.023226421
000270 b1 a6 16 3c 5d be 12 3c 0b e8 3e 3d 82 d9 79 3d
       0.009195016 0.008956519 0.046608012 0.060998447
000280 81 36 d8 3d 5e bf 14 3d 6e b2 17 bd c3 47 be 3c
       0.10557271 0.036315314 -0.0370354 0.023227578
000290 3d 9b 89 bb 80 fa 4d 3d e0 a8 35 3d 85 0d 5d bc
       -0.004199414 0.050287724 0.044350505 -0.013491993
0002a0 f6 4f 1c 3d 8d 3c ca 3b 78 7b 4c bd b0 6e 58 bd
       0.038162194 0.006171769 -0.049922436 -0.052839935
0002b0 40 b3 7e bc ec 60 8e 3c 63 d2 bb bc ef 56 3c bd
       -0.015545666 0.0173802 -0.022927469 -0.045981344
0002c0 fd 74 25 bd 93 bd 8b bb e4 34 57 3c 89 6e 65 3d
       -0.04039477 -0.0042645424 0.013135169 0.056013618
0002d0 72 4e 61 bd d5 21 bb 3d 2b 6d 07 bd b3 c3 15 3d
       -0.055006452 0.09137312 -0.033063095 0.036563586
0002e0 a8 7d d9 bc be 30 08 bc 0f e3 34 bd c7 61 34 bd
       -0.026549175 -0.008312402 -0.044161852 -0.04403856
0002f0 68 4b 50 bb 76 1f 03 3d e5 d8 87 bb 4c e9 9e 3d
       -0.0031783227 0.032012425 -0.004145729 0.077593416
000300 5c 8a 68 3c 7d c3 bf 3c 95 02 6d 3d 32 31 ec 3c
       0.014193144 0.023408646 0.05786379 0.028832052
000310 de 69 ed bc 97 2b 92 3d ae 27 70 ba 8a 71 78 3d
       -0.028981145 0.0713722 -0.0009161186 0.060655154
000320 77 73 5a 3d e2 df 36 3d 8b 8f a0 3b c5 22 93 bc
       0.053332772 0.044647105 0.004899924 -0.017960915
000330 18 99 76 3d 2e e2 5e 3d 1d ae 6f 3d 12 34 93 bc
       0.060204595 0.05441492 0.058515657 -0.017969165
000340 a6 46 90 3b ec 25 78 bc 5c a9 4b 3d 8d bc f0 3a
       0.004402953 -0.01514576 0.04972206 0.0018366739
000350 e3 f3 ed ba 53 dc 36 ba 57 15 48 3d 29 78 db bc
       -0.0018154349 -0.000697558 0.048848476 -0.026790695
000360 37 31 99 3d 32 70 f0 bc 9e bd 2e bd 7b 15 02 bb
       0.0748009 -0.029350374 -0.0426613 -0.001984923
000370 f4 88 7e bd 9e 79 47 3d 00 f9 30 3d ce c9 24 bd
       -0.062142327 0.048699968 0.043206215 -0.04023152
000380 89 43 eb 3b 8d f5 78 3d 28 aa 3f bb e5 37 a0 3c
       0.0071796817 0.06078105 -0.0029245708 0.019557903
000390 7c 14 67 bc 80 43 3c bc 9e 66 7e bd 01 bc a3 3c
       -0.014104005 -0.011490703 -0.062109582 0.019987108
0003a0 d9 53 2f bc d9 1f 75 bd af 9d 3c 3d d4 86 81 bd
       -0.010701143 -0.059844825 0.046048816 -0.063245445
0003b0 99 87 21 3d 70 b0 d7 3c f1 9c b2 3d 76 b2 f3 3c
       0.039435957 0.02632925 0.087213404 0.029748183
0003c0 9c 86 89 3c a3 a2 17 3d 26 d0 e7 bc df 80 19 bd
       0.01678782 0.037020337 -0.028297495 -0.037476417
0003d0 c1 d9 5d bc de 30 2e bd 46 9d d1 bd b4 68 06 39
       -0.013540686 -0.042527072 -0.10235076 0.00012818241
0003e0 eb 15 5e bd 3f d0 3e bc 17 c5 01 3d d6 c1 d1 3c
       -0.05422012 -0.011646329 0.0316821 0.025605123
0003f0 63 4e fa bc 44 08 98 bd 25 0c 3d bd 66 b9 d0 3c
       -0.030554956 -0.074234515 -0.04615416 0.02547903

classifier.f2.bias f4 [84]
000000 4b 91 07 bd 40 b5 9f 3d 4a b9 dd bc 66 90 bd 3b
       -0.033097547 0.077982426 -0.027065892 0.005785036
000010 d5 65 33 3a e2 7a 97 bc cb 27 6c 3d 24 9e 08 3e
       0.0006843482 -0.018491212 0.057655137 0.13341576
000020 00 93 15 3d 76 2b d3 bb 52 af b8 3d b3 0f 8c bd
       0.036517143 -0.00644439 0.09017815 -0.06838932
000030 bc 7c 8f bd 2d af 1d 3d de 23 54 3d 76 35 a3 3d
       -0.07006213 0.03849714 0.051792018 0.07969181
000040 f9 9b e3 3d 83 e6 f3 bc f8 6c 37 bd ee 6b c6 3d
       0.11113734 -0.029773002 -0.044781655 0.09688555
000050 41 69 ed 3c 61 ae 65 bd 14 ce 91 3c 4a 1d fc 3d
       0.028980853 -0.056074504 0.017798461 0.12310274
000060 fc dd 1a bd 0b fc 9a 3d 57 f3 28 3c 32 ab 8d 3d
       -0.037809357 0.07567605 0.010311923 0.069174185
000070 f6 5d e4 3c 62 20 dd bc 94 a1 ef 3d 41 d8 cc 3c
       0.027876835 -0.02699298 0.117007405 0.025005462
000080 d4 16 a6 bd 75 b3 07 3c 20 f8 4e bd b3 7a 03 3e
       -0.08109823 0.008282532 -0.0505296 0.12839775
000090 37 66 fc 3d b7 76 22 bc 2f 8c 2c bb f5 e3 6e 3d
       0.123241834 -0.009915999 -0.0026328673 0.058322866
0000a0 a8 e6 f4 3d 8c 80 6f bd c3 fa 23 3d 19 92 80 3d
       0.11958057 -0.0584722 0.040034067 0.06277866
0000b0 af b4 99 3d d7 40 b5 bc ee 47 5d bd 0e b0 27 3e
       0.07505166 -0.022125645 -0.054023676 0.16375753
0000c0 45 f4 63 3d 72 09 96 3d bf 9c 66 3d b2 1e a2 bc
       0.055652875 0.0732602 0.05630183 -0.019790027
0000d0 ef 3a 9a bc c6 dc b1 3d 86 c5 8d bd 82 a9 07 bd
       -0.01882693 0.08684687 -0.0692244 -0.03312064
0000e0 37 c7 0d 3c f3 8a 56 bd 97 f8 0a bd 31 e8 c5 3c
       0.008653454 -0.052378606 -0.03392848 0.024158569
0000f0 46 b9 f6 3d e8 be aa 3c 64 ba f7 3d ca 76 1b 3c
       0.12047057 0.020842984 0.12096098 0.009488771
000100 1f 5b 0f bd a2 fe ae 3d 25 e0 16 3c a2 07 d5 3d
       -0.03499901 0.08544661 0.009208714 0.104018465
000110 e0 17 29 3d 3e 05 5a bd 3d 2d 23 bd aa db 5b bd
       0.041282535 -0.053227656 -0.039838064 -0.053676285
000120 20 bd d7 3d 27 c3 af ba 6c 5b 28 bd 2b df 20 bd
       0.105341196 -0.00134096 -0.04110281 -0.03927533
000130 94 40 5f 3d 65 da 5b 3d 53 58 5e bd 7c 11 ae 3d
       0.054504946 0.053675074 -0.05428345 0.08499429
000140 e2 e9 8d bc 5e f5 b2 3d 5b 02 31 bd c3 87 34 bd
       -0.017323438 0.08738206 -0.043215137 -0.044074785

classifier.output.weight f4 [9, 84]
000000 7f 3e 04 3e 3c b4 2e 3e 06 4b 29 bb 04 d2 02 3d
       0.12914465 0.17060941 -0.002583207 0.031938568
000010 a5 4f 58 3e d5 85 80 bd 81 10 ef 3d 96 91 03 3e
       0.21124132 -0.062755264 0.1167307 0.12848505
000020 b4 fc 6e 3e 69 c1 ba 3d bd cc 18 be 62 de 91 bd
       0.23338586 0.09118921 -0.14921851 -0.07122494
000030 f9 7a 86 be 2b b1 12 be b6 11 5f be f2 68 68 3d
       -0.26265696 -0.14325397 -0.217841 0.05674071
000040 c3 f2 05 be 7e 91 23 bc d5 f8 47 bd ae e4 db bd
       -0.13080887 -0.0099834185 -0.04882129 -0.107369766
000050 84 1b 93 3d be 57 29 3d a9 5b 97 bd 1a 9b 43 3e
       0.071829826 0.041343443 -0.0739053 0.19102135
000060 97 5c b6 3d 4f 22 1d 3d f8 90 46 be c5 90 a3 bd
       0.08904379 0.038362797 -0.19391239 -0.07986597
000070 51 bd 46 be 3d 77 24 3d 57 48 c8 bd 79 43 2e bd
       -0.19408156 0.040152777 -0.09779423 -0.042544816
000080 b7 6f 66 be 06 a4 93 bc 96 60 57 be 89 45 4d bc
       -0.22503553 -0.018022548 -0.21032938 -0.0125287855
000090 1c 24 68 be df 61 1a 3e 88 87 75 be 0b 8c 11 be
       -0.22670025 0.15076397 -0.23977482 -0.14213578
0000a0 59 c9 9d 3e 95 a5 cf bd 4c 57 7a 3e c2 60 9d 3d
       0.3081768 -0.10139004 0.24447364 0.07684471
0000b0 8b 78 2d bd f0 87 2f bd 05 78 87 bc 53 1d cb bd
       -0.042351287 -0.04285425 -0.016536722 -0.099177025
0000c0 8a 6d a3 3d 38 52 0c 3f fa 53 d2 bd c7 8d 0d be
       0.07979877 0.54812956 -0.102699235 -0.13823615
0000d0 b1 d2 8c be 9f ff ff bd ec 87 bd bd 3f d5 33 bc
       -0.27504495 -0.12499928 -0.09254441 -0.010976135
0000e0 37 90 08 3e 00 d9 0c 3c ef be 88 be 7d 0e 00 bc
       0.13336264 0.008596659 -0.2670817 -0.007815954
0000f0 af e6 ae 3e e0 06 80 3e 98 50 06 3d 51 71 9f 3e
       0.34160373 0.25005245 0.032791704 0.3114114
000100 4e 63 43 3e bd 85 16 3d a0 ef f9 bd 17 ff fa bc
       0.1908085 0.036748637 -0.12203908 -0.030639214
000110 e2 54 00 be 18 92 4c 3e bf fd 14 be 1f 47 75 bd
       -0.1253238 0.19977605 -0.14549921 -0.05988228
000120 f5 1d 67 3d 49 a8 73 be 50 0c 85 be cc 2f 05 3e
       0.056425054 -0.23794664 -0.25985956 0.13006514
000130 bd 57 19 bd 51 d6 5f 3e 58 1b 56 3d 20 67 e5 bd
       -0.03743719 0.21859099 0.05227217 -0.1120131
000140 8e 7a 85 3d 50 c1 9c bb e3 f3 45 bc 04 9b bb 3e
       0.06517516 -0.004783787 -0.012082073 0.36641705
000150 e5 c4 91 3d e3 46 0c 3e 50 23 15 bd 2d 24 1f 3e
       0.07117633 0.13698916 -0.03641063 0.15541144
000160 a3 71 ee 3d 55 47 ec bc 45 61 4a be 1c 67 28 3d
       0.11642768 -0.028842608 -0.19763668 0.041113958
000170 76 e3 0e be b3 a5 b4 3d 99 25 09 bd 0f f5 51 bd
       -0.13953957 0.08820667 -0.03348312 -0.051259097
000180 00 58 2e 3e e3 78 23 be 8b fb 79 bd da 27 5d bd
       0.17025757 -0.15964083 -0.061030906 -0.053993084
000190 cf d9 fc bd f3 87 0e be f8 73 12 bd d9 75 d1 bc
       -0.12346231 -0.13919048 -0.035755128 -0.02556889
0001a0 b2 d4 1e be b1 6f 2b 3d b9 3f 8f 3d 6a c4 3a be
       -0.15510824 0.041854564 0.06994576 -0.18238989
0001b0 c4 73 f8 3c e7 47 00 3e a9 cf 7c be 32 60 d7 3d
       0.030328639 0.12527429 -0.24688591 0.10516395
0001c0 a5 18 65 3e 2c 7e cf bd 41 eb 94 bc 5b f9 f9 3d
       0.22372682 -0.10131487 -0.018178584 0.12205764
0001d0 0b e4 3a 3d af ae 0a bd 92 fc 3a 3e 56 49 f9 3d
       0.045627635 -0.033857998 0.1826041 0.12172191
0001e0 3b 33 ed bd ce ee 15 be 00 e2 fc 3d 4d 83 50 3e
       -0.11582037 -0.14641878 0.123477936 0.20362587
0001f0 3b d5 3d be fb 9e 24 3e 1f b3 1e be e6 c4 86 3d
       -0.18538372 0.16076271 -0.15498017 0.06580524
000200 0c 74 b2 3d 9e cd fd 3d f2 db c8 3d 42 60 cc bd
       0.087135404 0.12392734 0.09807576 -0.09979297
000210 83 b0 49 3e 5c ca 76 3e a4 a8 92 3d d1 8e 62 be
       0.1969624 0.24100631 0.07161072 -0.22124793
000220 78 b5 35 3e 58 b4 dd bd 82 83 b6 bd 8d ac b2 3d
       0.17745006 -0.108254135 -0.08911802 0.08724318
000230 35 ad f5 bb cc 63 8f bd 6c 43 3b 3e 0f 73 2f 3d
       -0.0074974545 -0.070014566 0.18287438 0.042834338
000240 12 f6 18 3e 62 72 44 be 95 69 e1 bd 46 4b 0a be
       0.14937618 -0.19184259 -0.11006466 -0.13505277
000250 75 13 cf bd 87 4b 8d bd fa 35 03 be 05 9a 03 be
       -0.10111133 -0.06899171 -0.12813559 -0.12851723
000260 fc a9 6c 3e b5 37 0e bd 18 52 d8 bd 30 47 5d bc
       0.23111719 -0.034721095 -0.10562533 -0.013505742
000270 40 47 98 3e f7 4c 22 be 78 ba 64 bd 34 bc 76 3e
       0.2974186 -0.15849672 -0.055841893 0.24095231
000280 45 9a a3 3d b4 0e df bb e9 4b 36 3d 12 a2 5e 3e
       0.07988409 -0.0068071727 0.044505987 0.21741512
000290 37 68 22 3d af d6 65 be 59 f5 a9 bd 01 03 5d ba
       0.03965017 -0.22445177 -0.082987495 -0.00084309286
0002a0 6c 1b 51 3e 1d 17 48 3d f9 a4 30 be ef 1b 90 3d
       0.20420617 0.048850168 -0.17250432 0.07036578
0002b0 fe f0 e5 3b 72 10 88 3d d0 fe e6 3d e1 3a 83 bd
       0.007017254 0.06643762 0.112790704 -0.06407715
0002c0 97 e9 a8 3d 71 a8 02 be 40 ff 4f 3e a8 29 37 bb
       0.08247679 -0.12759568 0.20312214 -0.0027948413
0002d0 8a 6b bc bd 3b 6a 79 3c b7 91 b8 3d 9a 04 0c be
       -0.09200199 0.015223081 0.09012168 -0.1367363
0002e0 73 51 63 be 2e 7c 8f bd 39 e1 1a bb 65 65 a4 3d
       -0.22199039 -0.07006107 -0.0023632778 0.08027152
0002f0 67 3a 34 bc b2 f9 d8 3b 80 1f 60 3d bc a5 6d bd
       -0.011000252 0.006621563 0.05471754 -0.058019385
000300 ba a5 16 3d 5f f4 22 3e 18 d9 39 3e 1d df 76 be
       0.036779143 0.15913533 0.18149221 -0.24108548
000310 6b 72 ac 3b 76 c4 e5 bc ef 80 d2 bb c1 ae 47 be
       0.005262663 -0.028047781 -0.0064240615 -0.19500257
000320 aa 2e 8d bc 1c 53 1a 3e c0 8b cc bd ec 22 8c be
       -0.017234165 0.15070766 -0.09987593 -0.27370393
000330 f9 8c 40 3c 88 e2 75 3d 78 90 8b 3e a0 da 34 bd
       0.0117523605 0.06003049 0.27258658 -0.04415381
000340 ed 00 4f be ac d3 98 3e c9 ef a0 3c a6 03 ae 3d
       -0.20215197 0.29848993 0.019645588 0.0849679
000350 29 ed a6 3e c6 7b 7a bd 06 b4 45 bd 1c 6c e8 3d
       0.32602814 -0.061153196 -0.048267387 0.11348745
000360 89 43 26 be f9 b2 e8 bc 7e 38 bf 3d db 41 92 be
       -0.162367 -0.028405653 0.09336947 -0.2856587
000370 60 21 e0 bd af bb 45 be df c8 94 3e 59 89 a1 bd
       -0.10943866 -0.19309877 0.29059502 -0.07887525
000380 d8 08 c4 bd fc 1f 1d bd 51 5b c9 bc fd 42 9a bd
       -0.09571999 -0.03836058 -0.024579676 -0.07532308
000390 da a6 b1 3b e1 25 58 3e b6 99 c2 be fb 31 02 3e
       0.0054215016 0.211082 -0.38007897 0.12714379
0003a0 2d b9 8c 3d 2f 81 86 3d 7a 8c 49 3e b4 55 6f be
       0.06871257 0.065676086 0.19682494 -0.23372537
0003b0 0f 9d 67 bd c5 4b e2 3d 01 47 00 3e e1 82 d0 bd
       -0.056546267 0.11049608 0.12527086 -0.10181213
0003c0 2b 05 88 be 95 d9 3a 3e 01 47 54 3e 26 19 22 bd
       -0.26566443 0.18247063 0.20730211 -0.039574765
0003d0 1f 8c a9 3d 11 98 04 3e af 0c aa 3d 94 37 ea 3d
       0.08278679 0.12948634 0.083032005 0.11436382
0003e0 83 75 d2 3c 95 db e4 3c a9 a0 ee bb 41 fe 90 bd
       0.0256908 0.027936736 -0.007282336 -0.07079745
0003f0 ca b2 cc bd 1b 57 34 be fa 6a 9b 3e 88 f4 a2 3d
       -0.09995039 -0.17611353 0.30355054 0.07956797

classifier.output.bias f4 [9]
000000 c4 7a 69 3d 30 da 1b be 24 99 51 bd 78 81 e5 bd
       0.057001844 -0.1521995 -0.051171437 -0.11206335
000010 ec 3e c3 bd 0c 40 d1 bc ef 22 fe 3c df 1b 98 3d
       -0.09533486 -0.025543235 0.031022517 0.07427191
000020 ee 01 98 3e
       0.29688972
